QuaterNet/weights_pace_network.bin (torch_old, 27197 bytes, 11 tensors)

h0 f4 [2, 1, 30]
00000000: 02a5 babd a98e 3d3e 21b7 cc3e a886 89be
00000010: 19f6 273e 47de 68be 9d20 c83c c27c 6a3e
00000020: 67e8 863e b07f 95be 56e5 a23e eee4 8e3e
00000030: a482 92be e88d 8bbe 1375 893e 68fa 8e3e
00000040: d295 8e3e c918 70be 8a93 d43e 6d57 9bbe
00000050: 5d9c 40be a1e0 bd3e dfd1 26bf 6c7d 933e
00000060: 845f d2be e156 6d3e cdb2 a0be 85ca a73c
00000070: 2c35 ae3e 333a 05bf f396 673e 141d 253e
00000080: a723 b8bc 6cb4 9cbe 046c 58be 0370 9fbd
00000090: 454c b8be 76ee 0fbf 9e39 0bbd def9 00bf
000000a0: 642e 10bf fd58 233e 1b74 b3bd 6c26 06bf
000000b0: eeee 22be 3666 7bbd 571b 66be a4f5 1cbc
000000c0: 594e f2bd 50f5 533d faf9 abbe 9f5a 6a3e
000000d0: 37ad 30be 727c 803e 76f1 a5be 54b2 3d3d
000000e0: 747c 8c3e d25d 1abf 639b d4b9 414f 98be
-0.09113504 0.18511452 0.39983466 -0.26860547 0.16402473 -0.22741042 0.024429614 0.22899154
0.26349184 -0.2919898 0.31815594 0.27909034 -0.28615296 -0.27256703 0.26847133 0.2792542
0.2784868 -0.23446955 0.41518813 -0.30340138 -0.18809648 0.3708544 -0.6516399 0.28806627
-0.41088498 0.23177673 -0.31386414 0.020482311 0.34024942 -0.5204193 0.22616176 0.16124374
-0.022477938 -0.306064 -0.21134955 -0.077850364 -0.3599569 -0.5622324 -0.033990495 -0.5038127
-0.56320786 0.15951915 -0.0876238 -0.5240238 -0.15911457 -0.061376773 -0.22471367 -0.00958005
-0.1183135 0.05174762 -0.33589154 0.22886132 -0.17253576 0.25094944 -0.32410783 0.046312645
0.274387 -0.6029941 -0.00040551563 -0.29747966

rnn.weight_ih_l0 f4 [90, 2]
00000000: 9bfe 18bf ef64 a5bd 86df f7be f036 33bc
00000010: c24a 6e3f bc96 033e 390e 8cbf 9c2e c63c
00000020: 5e60 95bf 0a28 ea3c 1991 f7bd 3d93 563d
00000030: 8739 8b3f a6e5 823e c3e3 493f f233 6d3d
00000040: 2436 21be 3fd9 e93d 9eb1 54be 1e16 d63d
00000050: 9820 04bf 6b1a 60bd 63a4 7bbf b8b4 723d
00000060: 1bb2 d7be 2f4f 5e3d 0de4 033f 3bd2 953d
00000070: d525 debf b0e0 693a 2db8 c0bd f9b1 ca3b
00000080: c440 f5bd 54e0 32bd ae6b 4abe 5ab5 1d3e
00000090: 5875 de3e 2a49 473e 64ea 703d 5b16 86be
000000a0: 1912 f0be 744f 39be 94ff adbd 88c5 2d3e
000000b0: fdc1 883f 2391 9f3e d822 90bf ad38 08be
000000c0: 8407 823f f0d1 ad3e dd27 513e 1e01 b03e
000000d0: 1031 453e 97e2 403e 5837 853f deba 1d3d
000000e0: 45d1 3fbf c736 f6bd 0031 96bf 6757 1ebd
000000f0: 0318 1ebf 45c6 d73c eea3 2e3f feff e53d
00000100: 88ff 4ebe 2124 0abf 520a 323e cb68 8dbe
00000110: 9268 b03e e593 08bf d4ef d7bf 1f50 7cbd
00000120: ecc9 e1be 86f5 9cbd 3e4f 7fbf d428 6cbe
00000130: 1d04 36bf a4ba 2b3d b1d6 90bf 3de1 ecbe
00000140: b078 cabf 9171 98be 55f0 e4bf 14e2 8a3d
00000150: 8c72 0e3f 8caf 9f3d e055 843f 141f abbd
00000160: 0724 84bf fdab 03bf 2c31 c23e cc17 cebe
00000170: e01a a23f 759c e03e 2345 f33e 0cc9 6abe
00000180: a15a 06bf 9db3 44bf 3642 57be 5264 11bf
00000190: 959b 21bf 46a0 ebbe 14b2 4b3d 1dea d7be
000001a0: 4717 dd3f d2d0 a13e b659 a3be c242 85be
000001b0: ff89 9fbf 063e 7c3d ec27 92bf 9258 04bc
000001c0: 52cd 0cbf 5fd2 fe3e 0937 243f f5f3 a0be
000001d0: 9b0e 05bf 9927 38bf e4c9 f03f 8759 a8ba
000001e0: 5637 33bf d713 3e3d 25cb 1b3f 3cc3 fdbd
000001f0: 0a66 7cbf db27 573d c04b 82bf 891c 11be
00000200: 2bc9 a73d 98fd 59bd 7f06 2d3f ee79 dabb
00000210: 4273 7a3f 2fa7 c5bd 3834 0cbf 8d7e 2b3e
00000220: 7751 23be 9bef 0fbc 8327 ec3e 80f2 e83d
00000230: 041b 54bf e08d 203e 9130 7abf 91ba 90bc
00000240: b3cb 083f c78c 02be 7e43 0ebf 65ed 123e
00000250: 88f5 313f ca3c f3bd 88ba a0be 96ba 343e
00000260: 8a25 61bd eeef 183e 1501 41be 8936 e43d
00000270: eff8 22bf 7828 27bc b741 743e d7de 423e
00000280: e8c9 3c3e 844b 9c3d 2cab 643f b9de 58bd
00000290: e28c 7ebf c088 07be dda2 72bf 46c3 c4bd
000002a0: 08d6 273f 1c5a 0ebd 204a 95bf 875b d0bd
000002b0: 4485 603d 9324 cb3d d997 663f 7401 543e
000002c0: 3fe0 c1be 781e 0abe 7eb6 92bf 7ca6 dabc
-0.597635 -0.08075892 -0.48412722 -0.010938391 0.9308282 0.1285047 -1.094184 0.024192147
-1.1670034 0.028583545 -0.12088222 0.05238651 1.0876931 0.25565833 0.7886316 0.057910867
-0.1574331 0.114183895 -0.2077088 0.10453437 -0.51612234 -0.054712694 -0.9829771 0.059254378
-0.4212807 0.054274734 0.5151985 0.07315489 -1.7355295 0.00089217257 -0.09410129 0.006185767
-0.11975244 -0.043670967 -0.19767639 0.15401211 0.434489 0.19461504 0.058817282 -0.2618893
-0.46888807 -0.18096715 -0.08496013 0.16969883 1.06842 0.31165418 -1.1260633 -0.1330287
1.0158544 0.33949232 0.20425363 0.34375852 0.19256997 0.18836437 1.0407515 0.03850829
-0.74928695 -0.12022167 -1.1733704 -0.038657572 -0.6175539 0.02633966 0.68218887 0.11230467
-0.20214665 -0.5396138 0.1738675 -0.27619013 0.3445478 -0.5335067 -1.6870065 -0.061599847
-0.44099367 -0.076640174 -0.9973029 -0.2306245 -0.71100026 0.04192604 -1.1315519 -0.46265593
-1.5818081 -0.29774144 -1.7885844 0.06781402 0.55643535 0.07797155 1.0338707 -0.08355537
-1.0323495 -0.5143431 0.3792814 -0.4025253 1.2664452 0.43869367 0.47513685 -0.22928256
-0.5248204 -0.7683657 -0.21021351 -0.567937 -0.63128024 -0.46020716 0.049730375 -0.42170802
1.7272729 0.3160463 -0.31904382 -0.26027495 -1.2463988 0.061582588 -1.1418433 -0.008077757
-0.55000794 0.49769875 0.64146477 -0.31436124 -0.5197541 -0.7193542 1.8811612 -0.0012844064
-0.7000631 0.04640564 0.6085685 -0.123907536 -0.985932 0.052528244 -1.0179367 -0.14171042
0.081926666 -0.05322036 0.6758804 -0.006667367 0.9783212 -0.09651028 -0.5476718 0.16747494
-0.15949045 -0.008785154 0.46123895 0.11374378 -0.8285372 0.15679121 -0.97730356 -0.017667087
0.5343582 -0.12749015 -0.55571735 0.14348371 0.69515276 -0.11876829 -0.31392312 0.17649302
-0.05496744 0.14935276 -0.18848069 0.11143214 -0.6366109 -0.01020252 0.23853193 0.19030319
0.18436396 0.07631591 0.8932369 -0.05294678 -0.9943372 -0.1323576 -0.9477976 -0.09607558
0.6556096 -0.034753904 -1.1663246 -0.101737075 0.054814592 0.09919085 0.9007545 0.2070368
-0.378664 -0.13488185 -1.1461942 -0.026690714

rnn.weight_hh_l0 f4 [90, 30]
00000000: 855b 89bd 000e 0b3e 5005 433e 91bc b13e
00000010: 0e56 20be 680a 933c 9d35 76bc 14b9 9f3d
00000020: 77a0 113e 8d69 0dbd 0e97 233e e7e5 1dbe
00000030: e19c f83c 03f2 8a3b 1eb5 fa3d db7c a33d
00000040: 000e ed39 738c 6f3c 2659 343d be45 293e
00000050: 5ed7 49bd f633 323c f34f 273c a9c7 043e
00000060: 6f11 673e 9acb a63d 7ee7 203e 7210 a63c
00000070: 65ed 0abe a128 433e 6903 0e3d 369f df3d
00000080: c353 c83e 7583 c93e f594 30bd 72fc 6cbe
00000090: 8a17 74be f010 473e a042 db3c c582 febc
000000a0: fc9c 3cbd 0579 60bd 42c7 7dbd e2ad a13d
000000b0: 3edf 25be 2083 683e d973 dc3d 458f 4d3e
000000c0: 1848 bdbd 0094 95be e607 f73c 270f a6be
000000d0: 845c f9bd f03c 3c3e 1796 dc3d 2767 40bd
000000e0: b03a f23d beeb 1e3c 225e 793e 0cc7 493e
000000f0: 6d97 7abe 47ee 79be f3a8 dcbe 95d2 1fbf
00000100: c94c 20bc 0d83 0ebe 1caa ef3e c99f 4fbe
00000110: 95bc 953d 7db1 62be 21f8 963d 9c26 6dbd
00000120: ee5a cb3d 1677 ba3d 4138 f8bd f48b 5e3d
00000130: c22e 153e 22d7 5f3d 185e 23bf a100 0d3e
00000140: 668c 863d 41a0 083e 3d29 99be 349e b7bc
00000150: 13f8 cdbc 1269 60be 954b 7dbe d267 8bb7
00000160: db3c bfbd fd0c d0be 3ff8 bc3d 69bb 093c
00000170: b7ba a03e c959 eb3e 669c d13d 4829 ca3c
00000180: 0e83 02bf 0fef 0a3f f5bb 92bb db29 1d3e
00000190: 3290 8e3d cf3d 343e b1a1 9f3b 5c3c 653c
000001a0: 1d87 08be 5687 133e e874 353c ff83 b03d
000001b0: 85ee b03e db61 eb3d d488 7ebd 6775 f6be
000001c0: 7d15 3ebb 9b93 123e cc77 a3ba 13c0 063d
000001d0: 5494 8fbd 5f2e 943c 82a9 143e 1491 843e
000001e0: 1cb2 083e 6b22 4abd 1c46 193f 631c d03e
000001f0: 6809 22bd 4013 243e 142d 1fbe 9739 453f
00000200: c073 693d 0772 d83d 888b 383e 3d68 a6bc
00000210: 8e2e 023e 17ac 1e3e 758e 36be 5755 f83d
00000220: bf24 323c 7d38 413e 76db 903e d2ae c43e
00000230: 9caa da3d 84ba 24bf ae65 243e 6d71 afbd
00000240: be1d 3f3d c9eb 743c 2a28 143e 5bd5 cdbd
00000250: ce1b 1abe b977 5b3f 09f2 09ba e904 e1bc
00000260: e156 ce3d e78b 10bd 4681 613d 07c8 57be
00000270: d8be 833e f9ec 6a3e f89c 9cbd 4b03 acbb
00000280: e993 c93d d57a ab3d b07d 4b3d b1e8 9c3d
00000290: e2a1 073d 81dd 783b 2149 e1bd 0cde 8dbd
000002a0: df8f 38be 636f 68bc c40b 08be 20c1 e33d
000002b0: c459 02bb c853 cdbc 68a0 00be 6293 bf3b
000002c0: 118a b1bd 921f b23d a354 683d 3890 9ebd
000002d0: 2f82 edba d225 84be 6a14 94bd 2a81 6a3d
000002e0: db5c 5abd 215f e83a 94c5 733c 1a99 6b3e
000002f0: 7af7 f63d cc33 923d e686 8c3e 2f28 4c3e
00000300: b3a9 b13d 8c97 3ebe 3ec2 92be 4a70 0b3e
00000310: d012 073e 0609 313e 92c6 4dbe 7cba e93e
00000320: 31ca 65bd bf23 a7be afb9 9dbe 4667 59bd
00000330: 20e7 e83c 3110 1f3e 4b98 21be d4f7 1c3e
00000340: 4b45 c0bd eca3 6dbe 0e5c 4ebe ae6f fd3e
00000350: e44d 023e dc79 bebd 3db3 203e 4a62 5bbb
00000360: c4c2 af3d 4211 2cbe 7f1f c1bd 9d8a a9bd
00000370: 5cd1 8f3b d7a5 e4bd 8ba3 9cbc 450b b5bd
00000380: 2b65 b53c 354a 433e 2204 7cbc e169 003e
00000390: f714 9abd 3ad6 99be 194c 05be 3416 b43e
000003a0: adf3 aa3c 9555 0a3d d0f1 06bd dada 903c
000003b0: 6363 1dbd 60e9 583c 4869 753e a672 00be
000003c0: d6dc afbd 3254 a13c 472f 0d3e 4adb 22bd
000003d0: 027f e63c 2cc6 6bbc 12b7 9fbd f044 2d3e
000003e0: af9a b0bb 3d72 dabd fb39 223e 5dc3 ccbd
000003f0: 8b1a c9bd 2b7a d93d e33f 0dbe caaf 0a3c
-0.06706909 0.1357956 0.19044995 0.34714177 -0.15657827 0.017949298 -0.015027431 0.07798973
0.14221369 -0.03452449 0.15975592 -0.15419732 0.030348243 0.004240276 0.122415766 0.07982799
0.00045214593 0.014620888 0.04403033 0.16530511 -0.049277656 0.010876646 0.0102119325 0.1296679
0.22565244 0.08144303 0.15713307 0.020271514 -0.13567121 0.19058467 0.03467122 0.10919039
0.39126405 0.39358106 -0.043110806 -0.23143175 -0.23837104 0.19440055 0.026765168 -0.031068215
-0.04604815 -0.054802913 -0.061957605 0.07894494 -0.16198441 0.2270627 0.10764284 0.20074184
-0.092422664 -0.29214478 0.030155133 -0.32433435 -0.12175849 0.18382621 0.10770815 -0.046973374
0.118276 0.00969976 0.24352315 0.19704837 -0.24471827 -0.24407302 -0.43097648 -0.624307
-0.009783932 -0.1391718 0.4680947 -0.20275797 0.0731136 -0.22138019 0.073715456 -0.05789815
0.09929453 0.09104745 -0.121201046 0.05433269 0.14568618 0.054648526 -0.6381545 0.13769771
0.065697476 0.13342382 -0.29914275 -0.022414304 -0.025142705 -0.21915081 -0.24735864 -1.6618436e-05
-0.09337779 -0.4063491 0.09227037 0.0084064985 0.31392452 0.45966938 0.10234909 0.024677888
-0.50981224 0.54271024 -0.0044779726 0.15347998 0.06961097 0.17601703 0.00487157 0.013991442
-0.13332792 0.14407095 0.011075236 0.08618926 0.34556976 0.11493274 -0.06214221 -0.48136446
-0.0029004507 0.1431412 -0.0012471615 0.03289802 -0.07010713 0.018088518 0.14517787 0.25891936
0.13349193 -0.04934923 0.59872603 0.40646657 -0.03955975 0.16022968 -0.1554454 0.77041
0.056995153 0.10568624 0.18021977 -0.020313377 0.12713072 0.15495335 -0.1782778 0.12125652
0.010873019 0.18869205 0.28292435 0.38414627 0.106770724 -0.643471 0.16054413 -0.08566556
0.046659224 0.014948794 0.14468446 -0.1005046 -0.15049669 0.8572956 -0.00052622013 -0.027468162
0.100751646 -0.03528967 0.055054925 -0.21072398 0.2573154 0.2294196 -0.07647127 -0.005249416
0.09842665 0.08373038 0.04968041 0.0766157 0.033113368 0.0037973823 -0.11000276 -0.06927118
-0.18023632 -0.014186713 -0.13285738 0.1112082 -0.001988993 -0.025064364 -0.1256119 0.005846427
-0.08668912 0.08697428 0.05672134 -0.07742351 -0.0018120463 -0.25810105 -0.07230456 0.057252087
-0.05331121 0.0017728546 0.014878649 0.23007622 0.12058921 0.07138786 0.2744667 0.19937204
0.08674946 -0.18612498 -0.2866382 0.13617054 0.1319077 0.17288598 -0.2009528 0.4565009
-0.056101028 -0.3264446 -0.30805728 -0.053077005 0.028430521 0.1553352 -0.15780751 0.15328914
-0.093882166 -0.23207062 -0.20152304 0.49499267 0.12725025 -0.093005866 0.15693374 -0.0033475333
0.085820705 -0.16803458 -0.094298355 -0.082783915 0.0043889713 -0.11164444 -0.019120952 -0.0884004
0.022142967 0.19071276 -0.015381845 0.1254039 -0.0752353 -0.30046254 -0.1301731 0.3517319
0.020868147 0.033773024 -0.032945454 0.017682482 -0.03842486 0.013239235 0.23965943 -0.12543735
-0.08587043 0.019693468 0.13787566 -0.03975991 0.028136734 -0.01439051 -0.0779859 0.16920829
-0.0053895335 -0.106663205 0.1584243 -0.099982 -0.09819516 0.10619005 -0.13793902 0.008464763

rnn.bias_ih_l0 f4 [90]
00000000: 4140 cdbd 4ff7 ae3d 19e8 e0bd db83 13be
00000010: e142 1bbe 2a0c 033e 348f 4e3e fe3e 9a3d
00000020: 27d9 423e c4c8 cdbd 2b5b 4ebe 5a85 ad3d
00000030: 039c 14be 4930 5bbd a4ec 483e 6806 2e3d
00000040: 0250 423e e98a 43bd 23a3 693d 436e 743e
00000050: c648 a63d 620b c33d ee1a 873e b408 393e
00000060: 8ffc 703e 14c8 2cbe c4d0 0d3e 37a1 8c3c
00000070: 55dd ccbc 4aa8 e5bd 31bc 183e 7246 003f
00000080: 339e 5b3e a82a b5bd 9782 97be 1985 06be
00000090: 4ebd a83e 0989 acbe d71d 583b 14c2 1abf
000000a0: 55c3 5f3e 483d 45bd 795f 343e 5803 bf3e
000000b0: 75c3 aa3d 1381 1a3e 8290 833d 4c42 3abd
000000c0: 6c94 15bf 1fc1 11bf 842d d2be 5a33 f93d
000000d0: 34df 453e f660 0a3d 10e7 b23e 376b f9bb
000000e0: 4d46 b03e 72df cebd 2f6c 16bf 311a 033e
000000f0: b541 edbd 2b4c a23d d909 043e 5d48 1bbe
00000100: e25f 0b3e 7583 2cbe 79d8 01be 678e b7bc
00000110: eb4e 5d3e 8de9 49be e98d 18be f466 403e
00000120: 6473 adbd 69d0 3abe e647 26be 7e4b 93bc
00000130: a92e e1bd 25b7 1abe 24c2 653d 4dda 8abd
00000140: aa3e e8bb 8531 203e 9201 9f3d d09b 423e
00000150: 0088 fabd 0204 223e 1eb2 36bc 80f4 213e
00000160: ef57 2a3e 1fb1 05be
-0.10022021 0.08543264 -0.10981769 -0.14405768 -0.15162231 0.12797609 0.20171815 0.07531546
0.1902815 -0.10048059 -0.20151965 0.084727004 -0.14512639 -0.053512845 0.19621521 0.04248658
0.18975833 -0.047739897 0.057040345 0.23870187 0.08119349 0.095236555 0.26387733 0.18069726
0.23533843 -0.16873199 0.13849169 0.017166717 -0.025007883 -0.11213739 0.1491554 0.5010749
0.21447067 -0.08846027 -0.2959182 -0.1313671 0.32956928 -0.336983 0.003297677 -0.6045239
0.21851857 -0.048154145 0.17614545 0.3730724 0.08338062 0.150883 0.06424047 -0.045473382
-0.584296 -0.56935304 -0.4105035 0.12167998 0.19323426 0.033783875 0.34941912 -0.007611658
0.34428635 -0.101012126 -0.58758825 0.1280296 -0.11584798 0.07924684 0.12894382 -0.15164323
0.13610795 -0.16847022 -0.12680234 -0.02240677 0.21612136 -0.19717999 -0.14897884 0.18789274
-0.08469275 -0.18243565 -0.16238365 -0.017980333 -0.10995228 -0.15108927 0.05609335 -0.06779919
-0.0070875483 0.1564389 0.077639714 0.1900475 -0.12232971 0.15821841 -0.011150865 0.15815926
0.16635107 -0.13055848

rnn.bias_hh_l0 f4 [90]
00000000: 834e 07be dce0 d03c 4833 813d ab30 c43d
00000010: 6831 313d 7fb7 343e c41d d93c dcc3 cbbd
00000020: 2795 d33d 3e43 90bd ae41 08be b944 543d
00000030: 001c c3bd c82d fabd 7ae6 c2bd 69d2 163e
00000040: 4f73 5b3d 3b89 333e 563b 1d3e dbb0 6b3e
00000050: 2ee2 253e 8a5e 41be 4f68 233d e100 103e
00000060: b7fb 883d 7941 22be d229 e13c b9ab 123e
00000070: 43cb 5d39 1afe d7bd 3329 42bd 58bb f53e
00000080: aad3 693e c7da 7fbe d8b0 9fbe a93a 01be
00000090: a5b7 b13e 6af8 2cbe 88bd 703e 1d0b d9be
000000a0: d400 253e 838f e9bd d605 2bbb b4ed 823e
000000b0: a9ea 8a3e 599e 0a3e 9c36 3abe 3716 41bc
000000c0: 1532 cebe 9b2e 36bf d1ef c9be 8599 5dbe
000000d0: 7b8a 603e d045 bf3d 2dac 573e 1e1b e63c
000000e0: 89db 843e 2444 eb3d bd78 e5be 343a 573d
000000f0: 9143 603d c194 80bc 5bea c13d 8d12 4f3d
00000100: 99b2 99bc afeb 67be cbda 3f3e 0b3f 97bd
00000110: d636 b23c 5f5d 0cbe cd23 9b3b 7fe5 0b3d
00000120: bc5e 293d 0c92 26be 1771 8abd 85f6 083e
00000130: 844c 753e 3218 143d 8400 ebbd 7f0b 18be
00000140: 9db3 2fbe cfc0 b3bd edaa b7bd 4220 613e
00000150: 1c41 02be 61bc 89bd 1890 f2bd 5619 243e
00000160: 4237 7c3d cc1b e83d
-0.13213544 0.025497846 0.06308609 0.09579595 0.043260008 0.17648123 0.026503451 -0.099494666
0.10331183 -0.070440754 -0.13306305 0.05182335 -0.09526825 -0.12215763 -0.09516616 0.14728703
0.053576764 0.17532818 0.15354666 0.23016684 0.16199562 -0.1888372 0.0398944 0.14062835
0.06688636 -0.15845288 0.027485762 0.1432332 0.00021151923 -0.10546513 -0.047402572 0.47994494
0.2283465 -0.249858 -0.3118961 -0.12620033 0.34710422 -0.16891637 0.235098 -0.4239129
0.16113597 -0.11404326 -0.0026096008 0.25571978 0.27132156 0.13536967 -0.18184894 -0.011785082
-0.40272585 -0.71164864 -0.39440778 -0.21640594 0.21927826 0.093394876 0.21061774 0.028089102
0.25948742 0.11487606 -0.44818678 0.05254574 0.054751936 -0.015695931 0.09468528 0.0505548
-0.01876192 -0.226485 0.18735807 -0.07385071 0.021754663 -0.13707493 0.0047344924 0.03415441
0.04135011 -0.1626665 -0.067598514 0.1337529 0.2395497 0.036155887 -0.11474708 -0.14848135
-0.17158361 -0.0877701 -0.089681484 0.21984962 -0.1272015 -0.067253835 -0.1184389 0.1602529
0.061576135 0.11333427

rnn.weight_ih_l0_reverse f4 [90, 2]
00000000: c6d0 b0bf df37 0f3e b2c0 d2be 1e6f 973e
00000010: c4ef c03e 6649 07bd 7666 16bf a8d0 343e
00000020: 8994 3fbf 424f 9b3d 1fd7 22bf 9c8d 083e
00000030: c16b d4be 58d6 28bd bc6b cb3e 10c6 94bd
00000040: e4b9 7a3f 0974 7f3e 014d 7abf 6b91 1a3e
00000050: 9c8d a9bf 32db 0b3e b3ce 7cbf 5537 fa3d
00000060: 31e9 9b3f e2e2 c6bd 788c 99bf 6d84 023d
00000070: 2e72 cabf 558a c83c 330a b53e 122d 8abd
00000080: 144d 683f b61e 1a3e 0c60 bb3f a7e7 ff3d
00000090: c640 6ebe eba9 d43d 88f7 99bf 9c67 33be
000000a0: f239 c33e 6944 743d 7c41 b93d a7fa b93e
000000b0: ac84 823d e3f0 a7bd 37b4 34bf 6299 f63d
000000c0: 6438 3fbf d45d eb3d e27d b23f 2390 803c
000000d0: 368d 2c3f 1c79 653e dcd6 153f 3429 87bd
000000e0: 5ac1 c23f 0026 3b3e f6c9 95bf 547c 833e
000000f0: cf92 36bf b11a dd3d 0da4 293f 9698 01bf
00000100: 5d0f 72be e8f2 0fbb 233c 64bf f7b1 95be
00000110: 223b a83f aa23 293e 62ab b1bb f2f9 8a3e
00000120: 9459 af3f c595 8b3e ea97 3e3f 71f1 d43e
00000130: 3464 763f ca93 eebd 2652 2dbd 0888 1a3f
00000140: 4858 39bf 1684 b13e 65a3 21bf da7c 5fbe
00000150: c761 983f 8f84 d2bd a6f4 71bf 4d3e 91be
00000160: 92c3 a4be 62bf 17bf 0ca8 b83f 8f32 8cbe
00000170: b748 12bf 2b9c 1a3e 7052 813e 2ee5 1abe
00000180: 536f a3bf e610 6d3e 70c4 24bf f5c1 06be
00000190: f7fd 9b3f d922 f3bd c507 a23f 8cf2 313e
000001a0: e98a 46bd dba1 38bd 484f 3b3e fb46 55be
000001b0: 1e55 1d3f b832 9a3e 6d1d a33f c0fc cb3e
000001c0: d3e3 5dbf 5e3c 413d 7f54 fbbe 62b9 573e
000001d0: 8b11 303e d3fb ff3e 41ab a0be 100d a63e
000001e0: 3c2b 93bf 5d1c aabc 5918 c6be 597f dd3d
000001f0: 7de6 7a3e 0aaa fcbb c5fa 973f b8c3 3cbe
00000200: a97e 7b3f 9d3c ff3d 8dcf 173f 41f4 373e
00000210: 94a6 37bf b57d 98bd 371e 2f3e 374b 113c
00000220: c3c1 5bbf 622e d03c 9f13 393f 9104 113e
00000230: 1897 a73e 1b88 823b 8b99 8a3f ca2f 15be
00000240: 84fc 7e3f d918 753d 16f6 753f a092 f8bd
00000250: ec1b 56bf 3713 85bc e031 833f 3f5f 183d
00000260: 1f16 52bf 6c0f 043e 923e a63f a981 1cbe
00000270: 1a3a 3f3f 3b94 a1bd f6af 733f 93f7 aebd
00000280: 227c 58bf f846 013e 8fae 5b3f 7791 0d3e
00000290: dda0 b2be bb28 8abd 3352 93bf a0d0 8abd
000002a0: bb8d 50bf 102c 41be 3265 943f f446 933c
000002b0: 9d15 14bf 4fd0 d13d da65 77bf e9e0 2d3e
000002c0: 3892 7e3e bfa5 243d 2450 003f fc96 e5bd
-1.3813713 0.13986157 -0.4116264 0.29576963 0.37682927 -0.033028983 -0.58750093 0.17657721
-0.7483602 0.075834766 -0.636095 0.1333527 -0.4148846 -0.04122004 0.39730632 -0.0726434
0.97939897 0.24946608 -0.9777375 0.15094535 -1.3246341 0.13657835 -0.987529 0.12217585
1.2180539 -0.09711243 -1.1995993 0.031864572 -1.5816095 0.024480024 0.35359344 -0.06746878
0.9074261 0.15050778 1.4638686 0.12495356 -0.23266897 0.10383972 -1.2028666 -0.17519993
0.38130146 0.059635554 0.09045693 0.36324045 0.063729614 -0.08200242 -0.70587486 0.12040974
-0.7469542 0.11492506 1.3944666 0.01569373 0.6740297 0.22409481 0.58530974 -0.06599656
1.5215256 0.18276215 -1.1702259 0.25680792 -0.7131776 0.107961066 0.66265947 -0.5062345
-0.23638673 -0.0021964852 -0.8915426 -0.2923734 1.3143046 0.16517511 -0.0054220418 0.27143818
1.3699212 0.27262703 0.7445055 0.41590455 0.9624665 -0.11649282 -0.04231467 0.6036382
-0.7240033 0.34671086 -0.63139945 -0.21824971 1.1904839 -0.1027919 -0.9451393 -0.28367844
-0.32180458 -0.592764 1.4426284 -0.27382323 -0.57142204 0.15098636 0.25258207 -0.15126488
-1.2768348 0.23150977 -0.6436224 -0.13159926 1.2186879 -0.11871881 1.2658621 0.1737768
-0.04847232 -0.045076232 0.18291962 -0.20827858 0.61458004 0.3011682 1.2743355 0.3984127
-0.8667576 0.04717671 -0.49087903 0.21066812 0.17194192 0.49996814 -0.31380656 0.3243184
-1.1497569 -0.020765478 -0.3869045 0.10815305 0.24501987 -0.0077107 1.1873404 -0.18434036
0.98240143 0.12462733 0.5930107 0.17964269 -0.71738553 -0.07445852 0.1710137 0.00886803
-0.8584253 0.025412742 0.72295564 0.14161898 0.32732463 0.00398351 1.0828108 -0.14569011
0.9960406 0.05983815 0.9607862 -0.121373415 -0.83636355 -0.016244514 1.0249596 0.03720021
-0.82065004 0.12896508 1.2987845 -0.15283836 0.7469803 -0.07889601 0.9519037 -0.08543315
-0.8456441 0.12624729 0.8581323 0.13825022 -0.34888354 -0.0674605 -1.150946 -0.06778073
-0.81466264 -0.18864465 1.1593382 0.017978169 -0.5784548 0.1024481 -0.9663979 0.16980328
0.24860466 0.04019713 0.50122285 -0.112104386

rnn.weight_hh_l0_reverse f4 [90, 30]
00000000: 579d 7f3d 2b01 033e 7f1e 06be 9d67 08be
00000010: f3cd 7c3d 8844 993d 93a9 a83c 1cb7 e1bd
00000020: 1cd0 34be fc7e 99bd d9d2 c33d 21ed 32bd
00000030: 4d08 0bbc a0a8 bf3d 21f7 ef3d 7646 e2bb
00000040: c5bc 1b3e 3741 9a3d 2298 4bbe bae3 503d
00000050: 0f58 203d 32b7 dfbd 650a 27be 76bd ffbc
00000060: a4a4 02bd 600c 5dbd 5774 a13d 01ab f4bd
00000070: 718e d23d 49b2 7dbe ac75 0c3f 980a 023e
00000080: ec28 61be 8baf e1bd e919 cd3d 4b7d 0d3e
00000090: 6d77 0bbe 3b08 a9bd 203a 79be 37a2 43be
000000a0: ee45 73be 6319 933d c141 5d3e df4c b4bd
000000b0: ebe0 f7bc 102e 153e bb69 e53e 1074 8cbe
000000c0: f65a 8fbe e065 263c 086b 503d fe23 643e
000000d0: 225a d7bd 8ef1 b83e d803 0bbe ed87 01bd
000000e0: 364c 0c3f 1a9a 8d3e 42b3 71be d88a 79be
000000f0: 074f 5dbe 458b 743c 4c36 89be 6e1d f2bd
00000100: 38b3 233f 426d 4d3e 378e 93be 5dc1 7ebe
00000110: 755c 32be b7ea 253d c155 4c3d 4c36 57be
00000120: c64d 8d3e d73f a5bd 0bd0 91bd ffca 7e3c
00000130: b4a8 8ebe a9f2 bb3e 2e23 0fb9 c715 11be
00000140: 4aba 7abd 4af3 f83e 11dd 42bd 8a5c afbe
00000150: 0fc3 c6be afa2 ae3d 2144 003e 31cf 8e3e
00000160: 2855 75bd 1359 1abe 1c6a 7e3e 0752 513e
00000170: 404e b7bc 63e4 3bbe d773 123f c5e4 32bd
00000180: d68e 76be 27e9 b1be f317 25be 9a87 7dbe
00000190: f0e2 25be 31b4 913d 2763 5abc 9a8c 80be
000001a0: bcb7 703e 5997 293e 68e7 543d c167 323e
000001b0: 394a 463e fa5f 9d3d ad42 29be ea67 eb3e
000001c0: 6a8d 8cbd 55ca 7abe e205 89be d98b 1fbe
000001d0: 761b 2c3e 4478 393d 033e 2cbe 1fe9 acbc
000001e0: 8b6f e73e f31d 993e d314 5abd e08e f1bd
000001f0: 507d 69be ac7a 3b3e 1e26 0cbe 7fda c2be
00000200: 26e0 6cbe b810 8fbc bc74 74be 78d7 abbd
00000210: 3207 183e 9757 27be 46b4 593e c0f5 c6bd
00000220: 6c35 2c3d c66e 093e 517b 82be 1a7f 06be
00000230: 9368 f73d 4527 b93d 206c 023d 8bf4 943e
00000240: 2113 223b d444 8a3e 20ea 613d e727 863e
00000250: 82ac 183e 1877 25be 82cc 773e edda 123d
00000260: 58ac 7bbc 697c 80be cd7d eabe cf5c f6be
00000270: 8976 ed3e af45 85bd c508 8c3e 4e21 1e3d
00000280: e0b1 32be a98f 04be f32c cc3d dab5 1dbc
00000290: f3d4 7a3e 5009 e73d 52f2 c53d 45e5 06be
000002a0: cdc0 81bd f7d1 61bc 9c7a 3c3e bb99 c2be
000002b0: dad1 3ebe e4ea 8a3e 38d4 933e 0943 8dbd
000002c0: 2bd8 17be bfa9 3ebd 3668 93be 5b7c 17be
000002d0: e993 2b3f 8fd1 113d 1223 46bd c47e fbbd
000002e0: 87aa f0bd d7af 16bd 05d2 86bd f666 2cbe
000002f0: b7e0 cabd 1cb8 843d a5eb 2a3e d85b 1ebe
00000300: da25 dabc 35b4 0fbe 62d5 473d 8acd 8cbd
00000310: f93f 343f 6c2b 02bf d3ab 3bbe df64 0d3d
00000320: 30b9 fc3e 92e9 8abe c11a bf3d f257 0c3e
00000330: 3b75 c0bc 653c 003e 7e45 fb3e 4ef6 883d
00000340: 3ffa 80bc 9e39 25bd d6e1 a73c cdef f2bd
00000350: 4c04 3c3d 8666 53be 30d8 953d ebce 03bc
00000360: 66b3 8dbd 7ee2 2c3c 4bc4 38be 96c9 19bc
00000370: b861 a4bd adf5 69be 07cd 243e c138 48bd
00000380: 62e2 2b3e ada6 2ebd 84a8 b33d a169 09be
00000390: c409 e5bd af92 94bd ae42 92be 21d7 103d
000003a0: 6731 fd3c 53cc 1d3d 8a22 34be 27c7 5b3e
000003b0: 8730 20bd be00 9f3e c790 063e 2f6a 2cbe
000003c0: eddb 983e 98c4 853d 1d1d 00be 4070 b7bc
000003d0: bf5a 493e bda4 f43e dfbd 11be 78ad 79be
000003e0: b4cf 6dbe 865f 04be c17d e2bd 3240 6cbe
000003f0: 71b8 733e 6bcb b73c 5529 ef3d 82fa 113d
0.06240591 0.12793414 -0.13097571 -0.13320775 0.061719846 0.074837744 0.020588672 -0.110212535
-0.17657512 -0.074949235 0.095617004 -0.043683175 -0.008485866 0.093583345 0.11717058 -0.0069053723
0.15208729 0.0753197 -0.19882253 0.050998427 0.03914648 -0.109236136 -0.16312559 -0.031218272
-0.031895295 -0.05396688 0.07883518 -0.11946679 0.10281075 -0.24775042 0.54867053 0.12699354
-0.21988267 -0.1101981 0.100147076 0.13817327 -0.13619776 -0.08253523 -0.24338579 -0.19104849
-0.23757145 0.071825765 0.21607114 -0.088037245 -0.030258616 0.14568353 0.44807228 -0.274323
-0.27999085 0.010156125 0.050883323 0.22279355 -0.10515238 0.36121792 -0.13575685 -0.03162377
0.5480379 0.27656633 -0.23603538 -0.24369371 -0.21612178 0.014925783 -0.26799238 -0.118220195
0.6394534 0.2006121 -0.2881944 -0.2487845 -0.17418082 0.040507045 0.04988647 -0.21016806
0.275984 -0.08068817 -0.07119759 0.015551328 -0.27863085 0.36708573 -0.00013650648 -0.14168464
-0.061212815 0.48623115 -0.047574107 -0.3425029 -0.38820693 0.08527123 0.12525989 0.2789245
-0.059895664 -0.15073042 0.24845165 0.20441447 -0.02237618 -0.18348841 0.5720801 -0.043675203
-0.24077925 -0.34748194 -0.16122417 -0.24758759 -0.16199851 0.07114447 -0.013329304 -0.2510727
0.23507589 0.16561641 0.0519785 0.17422391 0.19364251 0.07684322 -0.16529341 0.45977718
-0.0686291 -0.24491246 -0.267623 -0.15580691 0.1680735 0.04528071 -0.1682053 -0.021107255
0.45202288 0.29905662 -0.053242516 -0.11794829 -0.22801709 0.18308514 -0.13686416 -0.38057324
-0.23132381 -0.017464027 -0.23872656 -0.08390707 0.14846495 -0.16342007 0.21260175 -0.09714842
0.042043135 0.13421163 -0.25484708 -0.13134423 0.12080493 0.09040693 0.031841397 0.2909282
0.002473064 0.27005637 0.05515492 0.26202318 0.14909557 -0.16158712 0.24199107 0.035853315
-0.015360914 -0.25094917 -0.45799103 -0.48117682 0.46379498 -0.06507432 0.2735044 0.03860598
-0.17450666 -0.12945427 0.09969511 -0.009625876 0.24495296 0.11281073 0.096653596 -0.13173397
-0.06335602 -0.01378297 0.18406147 -0.38007912 -0.1863474 0.27132332 0.28872848 -0.068975516
-0.14828555 -0.0465486 -0.28790444 -0.14793532 0.6702257 0.03560024 -0.04837329 -0.12280038
-0.117512755 -0.036788788 -0.06583027 -0.16836151 -0.09906142 0.064804286 0.16691454 -0.15464723
-0.026629377 -0.14033587 0.048787482 -0.06875141 0.70410115 -0.50847507 -0.18327264 0.034520026
0.49360037 -0.27131325 0.09331275 0.13705423 -0.0234934 0.12523039 0.49076456 0.06687604
-0.015744327 -0.04033815 0.02049343 -0.118621446 0.045902535 -0.20644578 0.07316625 -0.008044939
-0.06918983 0.010552047 -0.1804363 -0.009386441 -0.08026451 -0.22847624 0.16093837 -0.04888225
0.16785577 -0.042639423 0.08772376 -0.134192 -0.11183503 -0.0725454 -0.28566498 0.035361413
0.030907346 0.038524937 -0.175913 0.2146269 -0.03910878 0.31055254 0.13141166 -0.16837381
0.2985529 0.06531638 -0.12511106 -0.022392392 0.19663523 0.47781935 -0.14232586 -0.2438258
-0.23223764 -0.12927064 -0.11059142 -0.23071364 0.23800828 0.022435864 0.11677805 0.035639293

rnn.bias_ih_l0_reverse f4 [90]
00000000: 2da7 acbd 7976 c43c 99af 1fbc 93fb 223e
00000010: 7a5f 12be 823c 353d 9d63 87be 9db3 083e
00000020: 8c8b 9a3c 12b5 edbb cc27 e33c 8ed4 04bc
00000030: b340 883d 8178 103e 8351 423a 7c84 7e3e
00000040: 3e42 273c 10f0 c33d 84ef f6bc 72c0 3bbd
00000050: 18d8 443e a282 273e a8a4 3dbd 040c ccbd
00000060: b580 7d3e ea1e 193e a58f b83d e171 603e
00000070: e65d ff3d aaa6 d2bd 8ede 1b3e 1629 32bf
00000080: 5a41 983e 2f99 b8be b247 febd 8a0f e93e
00000090: d27d 943d c016 0e3f 7eaf 023e 3aef 293e
000000a0: 41a0 c0bd d4ce 35bd 924b ccbe d016 a8be
000000b0: 11bb 24be 1ab9 d0be 8dd5 073f 5ccd 18be
000000c0: 11fe a93d 1daa 6dbe 15fb 2ebe 1be5 32bd
000000d0: f2e5 c43d 6850 adbe 8d68 3a3c fe42 36bd
000000e0: 1b7f ac3a a1f8 92be 7c98 093d 3614 e93b
000000f0: de31 afbd ecbe 7bbd 99fa 16be 6da1 b3bc
00000100: cb00 97bd 84eb c13d 5423 debb 3cb1 773d
00000110: ed2a 1e3d f111 00be 9a2d 05be 6614 b6bd
00000120: fd1e 17bd 2d4b 87bb 810f 193e 8048 523d
00000130: 841d 13be d469 73bd 7315 623c 1f5f cdbd
00000140: db6b 16be a585 9fbc 3566 c1bd 33ad e03d
00000150: 8067 0bbe e850 e43d 6e02 e7bc 901a 553d
00000160: cd1c 30bd f84e ecbc
-0.08430324 0.023982273 -0.009746456 0.1591628 -0.14294234 0.044247158 -0.26443186 0.13349767
0.01886537 -0.0072542513 0.027728938 -0.008107318 0.066529654 0.14108469 0.0007412659 0.24855226
0.010208664 0.09567273 -0.030143507 -0.045837827 0.19223058 0.16358426 -0.046299607 -0.09963229
0.24756129 0.14953199 0.09011773 0.21918441 0.124690816 -0.10285695 0.15221617 -0.6959394
0.2973736 -0.3605437 -0.124160185 0.45519668 0.07250561 0.55503464 0.12762257 0.16595164
-0.09405566 -0.0443867 -0.39901406 -0.32829905 -0.16086985 -0.4076622 0.5306023 -0.14922088
0.083004124 -0.23209424 -0.17087968 -0.043675523 0.09614171 -0.33850408 0.011377466 -0.044497482
0.0013160439 -0.28705314 0.033592686 0.007113005 -0.08554433 -0.061461374 -0.14744033 -0.02192756
-0.07373198 0.09468749 -0.006779114 0.06047176 0.038615156 -0.12506844 -0.13005677 -0.088906094
-0.036894787 -0.0041288347 0.1494732 0.051338673 -0.14366728 -0.059427097 0.013799059 -0.100279085
-0.14689581 -0.019472906 -0.094433226 0.10970535 -0.13613701 0.11148244 -0.0281994 0.052027285
-0.042996217 -0.028846249

rnn.bias_hh_l0_reverse f4 [90]
00000000: d212 003e 5c68 653d 0ab9 3dbd 997e a4bc
00000010: b763 2f3e 73be bf3d 8be2 8dbe cea2 903e
00000020: ae7d fd3d 9bfe afbd 0c12 adbd a922 a43d
00000030: 076f 2d3e 0d28 abbd 34f1 c0bd 4ce4 4a3e
00000040: 9005 463b 4939 21bd 4d6f 72bd 0044 10bd
00000050: ff69 3a3a b7d4 09bd 9317 1d3e 8da4 203e
00000060: b987 24bd 2894 0cbd 60e5 dcbd 8a04 f0bb
00000070: 3808 b63d 4f8e 553d 9202 093e b5ad 1cbf
00000080: cf88 7a3e 2149 55be b087 b13d 6c5c b43e
00000090: 12d5 f0bd f49e 173f 693d f53c 8044 143e
000000a0: 4d0a 48be 81cc 16be 1a12 07bf f3b2 abbe
000000b0: 2f56 1c3e 0c86 f2be 4057 913e 2c15 a2bc
000000c0: a90e 3dbe 4811 95ba ee34 57be f8b6 6ebe
000000d0: fcc3 c0bb 048c 1fbe f539 fd3c 0632 0c3e
000000e0: a161 40bb 39b3 f5bd 15ab 4b3d 7338 e6bc
000000f0: 0a1a fd3d dc32 f9bd c7fc cc3d 0295 063e
00000100: d2d5 9a3c 0a80 6fbd 6b6b c13d e3f4 06be
00000110: ce9f 20be c92a 47be b5a8 7c3c a72f 2fbd
00000120: df0c 15bc 951d 03bd 0fb6 b53c c736 303e
00000130: 9ac1 07bd 4690 b33d 8ba3 e4bd 8d18 83bd
00000140: 77e4 4cbe ae83 9c3d fda6 51be bfd1 183d
00000150: 9d8a b13d 1271 50bd 303b 82bd ab96 003e
00000160: bc7f 353d c769 1bbd
0.1250718 0.056007728 -0.046319045 -0.020079898 0.17127882 0.09362497 -0.277119 0.2824921
0.12377487 -0.08593484 -0.08450708 0.080144234 0.16936885 -0.083572485 -0.09421006 0.19813651
0.0030215718 -0.039361272 -0.059188176 -0.0352211 0.00071111316 -0.033650126 0.15341024 0.15687771
-0.040168498 -0.03432098 -0.10785937 -0.00732476 0.08888286 0.05213767 0.13379887 -0.61202556
0.24466251 -0.20828678 0.086684585 0.35226762 -0.1175939 0.5922692 0.02993651 0.14479256
-0.1953518 -0.1472645 -0.52761996 -0.33534965 0.15267251 -0.47367895 0.2838688 -0.019785486
-0.18462624 -0.0011372948 -0.21016285 -0.23311985 -0.005882738 -0.15580755 0.030911425 0.13690957
-0.0029355066 -0.11997075 0.049723703 -0.028103089 0.12358482 -0.12167904 0.10009151 0.1314278
0.018900786 -0.058471717 0.094443165 -0.13179354 -0.1568596 -0.19449915 0.015421082 -0.042770054
-0.009097307 -0.032010633 0.022181539 0.17208396 -0.033143617 0.08767752 -0.11164006 -0.06401167
-0.20009027 0.076423034 -0.20473857 0.037309404 0.086690165 -0.050889082 -0.06358945 0.12557475
0.04431127 -0.037942674

fc.weight f4 [4, 60]
00000000: f874 13be bec8 5cbc 9bae 10be f13d 8bbc
00000010: 3872 1c3d 830b c13c 06a7 6b3e c119 57bd
00000020: 40a5 993d decd c2bc 606e 83bd ae7e ac3d
00000030: 1501 a63d 796b 1dbe 024e f8bd 1b9a 0a3e
00000040: 2294 d5bc 0570 b53d b374 fdbc 69f1 003e
00000050: 04ce f8ba 6559 4dbc 99f8 43be 965b 8e3d
00000060: daae 7fbe d61e 463e e77c 15be bee7 bb3d
00000070: 3da1 c0bd f265 93bd 69c4 033e 3042 5f3e
00000080: ae17 09be 8674 dabd 60fa 04bc 9262 533d
00000090: 54ed c8bd 9fa5 11be caf1 27be ff99 23be
000000a0: 3349 63bd f316 51bc 99bb fb3d 38a6 07be
000000b0: 6f53 2f3e 0cb1 b03d 78c9 66bd ce94 eb3c
000000c0: 32eb db3d 61fb 8e3d 3e19 803d f716 d73d
000000d0: ed94 a5bd 5ea2 b6bd 5d6d 9dbd 3aaf a3bd
000000e0: a6fe e73d fb28 bb3c 985c 333e bbc9 94bd
000000f0: b208 eb3d a1c1 9f3d 28b4 0d3e 0708 b93c
00000100: 01fa 0abc a6dd 80bd e8c2 92bc c32d fb3c
00000110: 8e5b 003e eb15 7abc 23a6 b13d 03db cbbd
00000120: 8c25 e1bd f84a d3bd 9652 8abd 689d 043e
00000130: 8d40 793d 8106 8f3d 6aea 08be ed40 78bb
00000140: 62c0 423d f2b9 45bd 7988 73bd 340f ec3d
00000150: 44dc debc 2352 a3bd b940 1fbd 5669 043e
00000160: c488 abbd 7b61 09bd bec8 e9bd 303f 73bc
00000170: 2dd4 7cbd d0d8 203d a023 b7bd 8165 85ba
00000180: d569 9c3d 46d5 a53c a515 d1bc 45f9 b23c
00000190: 993f bcbd 866a 863c 79e6 313d 8145 97bd
000001a0: 5b3e 003d c335 abbd c759 4abc 3bc8 98ba
000001b0: 4a58 cfbc 98d6 303d 7e81 803c 042e c63d
000001c0: e7f6 3b3d 89e8 d3bd 27a5 2fbd fc82 813d
000001d0: 9795 b0bd d2d9 8e3d 658b 80bc e803 9c3d
000001e0: 19a3 4bbd 0ea5 d93d 1ce9 053d 386c 5c3d
000001f0: fe9e bc3c 9538 15be dde7 ff3d f22e 33bd
00000200: 4e19 e73d 4ad9 25be cc78 0e3c ecfb d03d
00000210: 2fd6 5fbd 26ea b8bc f154 363c 0347 b73d
00000220: 3557 273e 1683 b03d 403b 7bbd cac6 4fbe
00000230: 3f5b 18be 7339 043e bae9 e7bc 0fbc 8b3d
00000240: d791 343d 4829 3b3d fada 633c 1112 313d
00000250: 3c70 463e 4015 febc cf67 45be e0e6 88bd
00000260: 9c0d b3bd e096 18bc f4d0 79bb 15f8 523d
00000270: 3485 20be 2359 403d 8f0a 2abd 10f1 413d
00000280: cbf2 3dbe 5b8a 13be fbe9 a63d 9f13 e7bd
00000290: 0074 3ebd 880d 7c3e 5dd9 083d d67c 81bd
000002a0: 249a 1abe fbf0 40bc f49e 36be 9df0 50bd
000002b0: ad2f 4ebe 084d 463d 1e49 ecbd a432 4e3e
000002c0: a41a f03d e99f 153e e6cd 913d f71e cd3d
000002d0: 357a f9bd 4036 213e 7bb1 23bc b1c3 31bd
000002e0: 2f1c 393d 9aca 633d 0493 cd3d 51b8 92bd
000002f0: 0e2c ccbd 9f74 893d 92ee 3dbd 0f87 d13c
00000300: 2037 07be ae4b 0cbc bdd0 29bd d28f 1e3e
00000310: 6fae e53d d4ab 24be 3fd2 37be 6f74 0bbe
00000320: 8288 d13d 760c f9bc 0285 74bc e0f5 8fbb
00000330: a1f3 d7bd 5684 423e 2367 f63c e944 56bb
00000340: 22b0 883d 852c 973e 1b03 59be cb41 4cbd
00000350: e504 cabd 486f 5f3c 063a 133e 0115 1d3e
00000360: c782 343e d73b 01be 05e4 b2bd ddb8 973d
00000370: 8dc8 cd3d a5cb f9bc 25a1 b1bc 60a1 463d
00000380: cc66 debb 6063 e5bd 261c 65be ff22 27bd
00000390: 9389 463e 0907 1b3d 88cf 47be d8dd 5d3e
000003a0: 2cb5 543d a005 ba3b 3574 31be f954 f23d
000003b0: 7575 54be cb22 8638 c356 683e e552 273e
-0.14400089 -0.013475595 -0.14129107 -0.01699731 0.038194865 0.02356506 0.23012933 -0.052514795
0.07502222 -0.023779806 -0.06417537 0.084226 0.08105675 -0.15373029 -0.12124254 0.13535349
-0.026071612 0.08859257 -0.030939436 0.1259209 -0.0018982296 -0.01253352 -0.19137801 0.069510624
-0.24969044 0.193477 -0.14598428 0.09175061 -0.09405754 -0.07197179 0.12867893 0.21802592
-0.1338794 -0.10666756 -0.008116335 0.051607676 -0.09810892 -0.14223336 -0.16400829 -0.15976714
-0.05548973 -0.012761819 0.12291641 -0.13247001 0.17121671 0.08627519 -0.05634448 0.028757479
0.10738219 0.069815405 0.062548146 0.10502427 -0.08085046 -0.08917688 -0.07686875 -0.07992406
0.11327867 0.02284669 0.1751579 -0.072650395 0.11476268 0.07800604 0.13838255 0.022586836
-0.008482457 -0.06292276 -0.017915204 0.03066147 0.12534925 -0.015264015 0.08674266 -0.099538825
-0.109934896 -0.103170335 -0.06754033 0.1295067 0.060852576 0.069836624 -0.13370672 -0.0037880496
0.04754675 -0.048273034 -0.059456322 0.11526337 -0.02720464 -0.07974651 -0.038880084 0.12930807
-0.08375695 -0.03354023 -0.11415242 -0.014846608 -0.061725784 0.03926927 -0.08942342 -0.0010177345
0.07637373 0.020243298 -0.025523016 0.021847377 -0.09191818 0.016408216 0.043432686 -0.07386304
0.031309467 -0.083598636 -0.012350506 -0.0011656353 -0.025310654 0.043173403 0.015686747 0.096767455
0.04588976 -0.10347087 -0.04288211 0.063238114 -0.08622282 0.0697514 -0.015691468 0.076179326
-0.04971609 0.10627185 0.032693014 0.053814143 0.023025032 -0.14572366 0.12495396 -0.043745942
0.11284123 -0.1619617 0.008695792 0.102043 -0.05464762 -0.022572588 0.01112865 0.08949091
0.1634186 0.08618753 -0.061335802 -0.20290676 -0.14878558 0.1291254 -0.028309692 0.06822979
0.044084396 0.045693666 0.013907189 0.04323012 0.19378752 -0.031015992 -0.19277881 -0.06684661
-0.0874283 -0.009313315 -0.003811893 0.05150612 -0.15675813 0.046960007 -0.041513976 0.047349036
-0.1854965 -0.14408247 0.08150097 -0.11283039 -0.046497345 0.24614537 0.03341042 -0.06322639
-0.15097862 -0.011776204 -0.17834073 -0.051010717 -0.20135374 0.048413306 -0.115373835 0.20136505
0.11723831 0.14611782 0.0711935 0.10015672 -0.12181512 0.15743351 -0.009991045 -0.043399516
0.045192894 0.055613138 0.10037807 -0.07164062 -0.0996934 0.06711697 -0.046370097 0.025577096
-0.13204622 -0.008562965 -0.041458834 0.1548455 0.11214911 -0.16081172 -0.17951296 -0.13618635
0.10231115 -0.03040145 -0.01492429 -0.0043933243 -0.105445154 0.18995795 0.030078476 -0.0032694882
0.0667422 0.29526153 -0.21192591 -0.049867433 -0.09864215 0.013637371 0.14377603 0.15340044
0.17628013 -0.12620483 -0.087348975 0.07408307 0.10048018 -0.030492613 -0.021683285 0.048493743
-0.0067871567 -0.11200595 -0.22374019 -0.04080486 0.19388418 0.037848506 -0.1951276 0.21666658
0.05193059 0.00567694 -0.17329486 0.118326135 -0.20747931 6.3960986e-05 0.22689347 0.16340216

fc.bias f4 [4]
00000000: adaf 213d 9237 2dbd 44b8 cbbc e141 01bd
0.039474178 -0.042289324 -0.024868138 -0.031556968
